#############################
YoloRegression(
  (darknet): Sequential(
    (0): CNNBlock(
      (conv): Conv2d(3, 8, kernel_size=(7, 7), stride=(2, 2), padding=(3, 3), bias=False)
      (batchnorm): BatchNorm2d(8, eps=1e-05, momentum=0.1, affine=True, track_running_stats=True)
      (leakyrelu): LeakyReLU(negative_slope=0.1)
    )
    (1): MaxPool2d(kernel_size=(2, 2), stride=(2, 2), padding=0, dilation=1, ceil_mode=False)
    (2): CNNBlock(
      (conv): Conv2d(8, 24, kernel_size=(3, 3), stride=(1, 1), padding=(1, 1), bias=False)
      (batchnorm): BatchNorm2d(24, eps=1e-05, momentum=0.1, affine=True, track_running_stats=True)
      (leakyrelu): LeakyReLU(negative_slope=0.1)
    )
    (3): MaxPool2d(kernel_size=(2, 2), stride=(2, 2), padding=0, dilation=1, ceil_mode=False)
    (4): CNNBlock(
      (conv): Conv2d(24, 16, kernel_size=(1, 1), stride=(1, 1), bias=False)
      (batchnorm): BatchNorm2d(16, eps=1e-05, momentum=0.1, affine=True, track_running_stats=True)
      (leakyrelu): LeakyReLU(negative_slope=0.1)
    )
    (5): CNNBlock(
      (conv): Conv2d(16, 32, kernel_size=(3, 3), stride=(1, 1), padding=(1, 1), bias=False)
      (batchnorm): BatchNorm2d(32, eps=1e-05, momentum=0.1, affine=True, track_running_stats=True)
      (leakyrelu): LeakyReLU(negative_slope=0.1)
    )
    (6): CNNBlock(
      (conv): Conv2d(32, 32, kernel_size=(1, 1), stride=(1, 1), bias=False)
      (batchnorm): BatchNorm2d(32, eps=1e-05, momentum=0.1, affine=True, track_running_stats=True)
      (leakyrelu): LeakyReLU(negative_slope=0.1)
    )
    (7): CNNBlock(
      (conv): Conv2d(32, 64, kernel_size=(3, 3), stride=(1, 1), padding=(1, 1), bias=False)
      (batchnorm): BatchNorm2d(64, eps=1e-05, momentum=0.1, affine=True, track_running_stats=True)
      (leakyrelu): LeakyReLU(negative_slope=0.1)
    )
    (8): MaxPool2d(kernel_size=(2, 2), stride=(2, 2), padding=0, dilation=1, ceil_mode=False)
    (9): CNNBlock(
      (conv): Conv2d(64, 64, kernel_size=(1, 1), stride=(1, 1), bias=False)
      (batchnorm): BatchNorm2d(64, eps=1e-05, momentum=0.1, affine=True, track_running_stats=True)
      (leakyrelu): LeakyReLU(negative_slope=0.1)
    )
    (10): CNNBlock(
      (conv): Conv2d(64, 128, kernel_size=(3, 3), stride=(1, 1), padding=(1, 1), bias=False)
      (batchnorm): BatchNorm2d(128, eps=1e-05, momentum=0.1, affine=True, track_running_stats=True)
      (leakyrelu): LeakyReLU(negative_slope=0.1)
    )
    (11): CNNBlock(
      (conv): Conv2d(128, 64, kernel_size=(1, 1), stride=(1, 1), bias=False)
      (batchnorm): BatchNorm2d(64, eps=1e-05, momentum=0.1, affine=True, track_running_stats=True)
      (leakyrelu): LeakyReLU(negative_slope=0.1)
    )
    (12): CNNBlock(
      (conv): Conv2d(64, 128, kernel_size=(3, 3), stride=(1, 1), padding=(1, 1), bias=False)
      (batchnorm): BatchNorm2d(128, eps=1e-05, momentum=0.1, affine=True, track_running_stats=True)
      (leakyrelu): LeakyReLU(negative_slope=0.1)
    )
    (13): CNNBlock(
      (conv): Conv2d(128, 128, kernel_size=(3, 3), stride=(1, 1), padding=(1, 1), bias=False)
      (batchnorm): BatchNorm2d(128, eps=1e-05, momentum=0.1, affine=True, track_running_stats=True)
      (leakyrelu): LeakyReLU(negative_slope=0.1)
    )
    (14): CNNBlock(
      (conv): Conv2d(128, 128, kernel_size=(3, 3), stride=(1, 1), padding=(1, 1), bias=False)
      (batchnorm): BatchNorm2d(128, eps=1e-05, momentum=0.1, affine=True, track_running_stats=True)
      (leakyrelu): LeakyReLU(negative_slope=0.1)
    )
  )
  (fcs): Sequential(
    (0): Flatten(start_dim=1, end_dim=-1)
    (1): Linear(in_features=100356, out_features=155, bias=True)
    (2): Dropout(p=0.0, inplace=False)
    (3): LeakyReLU(negative_slope=0.1)
    (4): Linear(in_features=155, out_features=1, bias=True)
    (5): ScaledHardsigmoid()
  )
)
#############################
CNNBlock(
  (conv): Conv2d(3, 8, kernel_size=(7, 7), stride=(2, 2), padding=(3, 3), bias=False)
  (batchnorm): BatchNorm2d(8, eps=1e-05, momentum=0.1, affine=True, track_running_stats=True)
  (leakyrelu): LeakyReLU(negative_slope=0.1)
)
#############################
Conv2d(3, 8, kernel_size=(7, 7), stride=(2, 2), padding=(3, 3), bias=False)
#############################
BatchNorm2d(8, eps=1e-05, momentum=0.1, affine=True, track_running_stats=True)
#############################
LeakyReLU(negative_slope=0.1)
#############################
MaxPool2d(kernel_size=(2, 2), stride=(2, 2), padding=0, dilation=1, ceil_mode=False)
#############################
CNNBlock(
  (conv): Conv2d(8, 24, kernel_size=(3, 3), stride=(1, 1), padding=(1, 1), bias=False)
  (batchnorm): BatchNorm2d(24, eps=1e-05, momentum=0.1, affine=True, track_running_stats=True)
  (leakyrelu): LeakyReLU(negative_slope=0.1)
)
#############################
Conv2d(8, 24, kernel_size=(3, 3), stride=(1, 1), padding=(1, 1), bias=False)
#############################
BatchNorm2d(24, eps=1e-05, momentum=0.1, affine=True, track_running_stats=True)
#############################
LeakyReLU(negative_slope=0.1)
#############################
MaxPool2d(kernel_size=(2, 2), stride=(2, 2), padding=0, dilation=1, ceil_mode=False)
#############################
CNNBlock(
  (conv): Conv2d(24, 16, kernel_size=(1, 1), stride=(1, 1), bias=False)
  (batchnorm): BatchNorm2d(16, eps=1e-05, momentum=0.1, affine=True, track_running_stats=True)
  (leakyrelu): LeakyReLU(negative_slope=0.1)
)
#############################
Conv2d(24, 16, kernel_size=(1, 1), stride=(1, 1), bias=False)
#############################
BatchNorm2d(16, eps=1e-05, momentum=0.1, affine=True, track_running_stats=True)
#############################
LeakyReLU(negative_slope=0.1)
#############################
CNNBlock(
  (conv): Conv2d(16, 32, kernel_size=(3, 3), stride=(1, 1), padding=(1, 1), bias=False)
  (batchnorm): BatchNorm2d(32, eps=1e-05, momentum=0.1, affine=True, track_running_stats=True)
  (leakyrelu): LeakyReLU(negative_slope=0.1)
)
#############################
Conv2d(16, 32, kernel_size=(3, 3), stride=(1, 1), padding=(1, 1), bias=False)
#############################
BatchNorm2d(32, eps=1e-05, momentum=0.1, affine=True, track_running_stats=True)
#############################
LeakyReLU(negative_slope=0.1)
#############################
CNNBlock(
  (conv): Conv2d(32, 32, kernel_size=(1, 1), stride=(1, 1), bias=False)
  (batchnorm): BatchNorm2d(32, eps=1e-05, momentum=0.1, affine=True, track_running_stats=True)
  (leakyrelu): LeakyReLU(negative_slope=0.1)
)
#############################
Conv2d(32, 32, kernel_size=(1, 1), stride=(1, 1), bias=False)
#############################
BatchNorm2d(32, eps=1e-05, momentum=0.1, affine=True, track_running_stats=True)
#############################
LeakyReLU(negative_slope=0.1)
#############################
CNNBlock(
  (conv): Conv2d(32, 64, kernel_size=(3, 3), stride=(1, 1), padding=(1, 1), bias=False)
  (batchnorm): BatchNorm2d(64, eps=1e-05, momentum=0.1, affine=True, track_running_stats=True)
  (leakyrelu): LeakyReLU(negative_slope=0.1)
)
#############################
Conv2d(32, 64, kernel_size=(3, 3), stride=(1, 1), padding=(1, 1), bias=False)
#############################
BatchNorm2d(64, eps=1e-05, momentum=0.1, affine=True, track_running_stats=True)
#############################
LeakyReLU(negative_slope=0.1)
#############################
MaxPool2d(kernel_size=(2, 2), stride=(2, 2), padding=0, dilation=1, ceil_mode=False)
#############################
CNNBlock(
  (conv): Conv2d(64, 64, kernel_size=(1, 1), stride=(1, 1), bias=False)
  (batchnorm): BatchNorm2d(64, eps=1e-05, momentum=0.1, affine=True, track_running_stats=True)
  (leakyrelu): LeakyReLU(negative_slope=0.1)
)
#############################
Conv2d(64, 64, kernel_size=(1, 1), stride=(1, 1), bias=False)
#############################
BatchNorm2d(64, eps=1e-05, momentum=0.1, affine=True, track_running_stats=True)
#############################
LeakyReLU(negative_slope=0.1)
#############################
CNNBlock(
  (conv): Conv2d(64, 128, kernel_size=(3, 3), stride=(1, 1), padding=(1, 1), bias=False)
  (batchnorm): BatchNorm2d(128, eps=1e-05, momentum=0.1, affine=True, track_running_stats=True)
  (leakyrelu): LeakyReLU(negative_slope=0.1)
)
#############################
Conv2d(64, 128, kernel_size=(3, 3), stride=(1, 1), padding=(1, 1), bias=False)
#############################
BatchNorm2d(128, eps=1e-05, momentum=0.1, affine=True, track_running_stats=True)
#############################
LeakyReLU(negative_slope=0.1)
#############################
CNNBlock(
  (conv): Conv2d(128, 64, kernel_size=(1, 1), stride=(1, 1), bias=False)
  (batchnorm): BatchNorm2d(64, eps=1e-05, momentum=0.1, affine=True, track_running_stats=True)
  (leakyrelu): LeakyReLU(negative_slope=0.1)
)
#############################
Conv2d(128, 64, kernel_size=(1, 1), stride=(1, 1), bias=False)
#############################
BatchNorm2d(64, eps=1e-05, momentum=0.1, affine=True, track_running_stats=True)
#############################
LeakyReLU(negative_slope=0.1)
#############################
CNNBlock(
  (conv): Conv2d(64, 128, kernel_size=(3, 3), stride=(1, 1), padding=(1, 1), bias=False)
  (batchnorm): BatchNorm2d(128, eps=1e-05, momentum=0.1, affine=True, track_running_stats=True)
  (leakyrelu): LeakyReLU(negative_slope=0.1)
)
#############################
Conv2d(64, 128, kernel_size=(3, 3), stride=(1, 1), padding=(1, 1), bias=False)
#############################
BatchNorm2d(128, eps=1e-05, momentum=0.1, affine=True, track_running_stats=True)
#############################
LeakyReLU(negative_slope=0.1)
#############################
CNNBlock(
  (conv): Conv2d(128, 128, kernel_size=(3, 3), stride=(1, 1), padding=(1, 1), bias=False)
  (batchnorm): BatchNorm2d(128, eps=1e-05, momentum=0.1, affine=True, track_running_stats=True)
  (leakyrelu): LeakyReLU(negative_slope=0.1)
)
#############################
Conv2d(128, 128, kernel_size=(3, 3), stride=(1, 1), padding=(1, 1), bias=False)
#############################
BatchNorm2d(128, eps=1e-05, momentum=0.1, affine=True, track_running_stats=True)
#############################
LeakyReLU(negative_slope=0.1)
#############################
CNNBlock(
  (conv): Conv2d(128, 128, kernel_size=(3, 3), stride=(1, 1), padding=(1, 1), bias=False)
  (batchnorm): BatchNorm2d(128, eps=1e-05, momentum=0.1, affine=True, track_running_stats=True)
  (leakyrelu): LeakyReLU(negative_slope=0.1)
)
#############################
Conv2d(128, 128, kernel_size=(3, 3), stride=(1, 1), padding=(1, 1), bias=False)
#############################
BatchNorm2d(128, eps=1e-05, momentum=0.1, affine=True, track_running_stats=True)
#############################
LeakyReLU(negative_slope=0.1)
…
